bots/nc4_simple_ppo/model_backup/model.pt (torch_old, 28197 bytes, 13 tensors)

fc1.weight f4 [64, 17]
0	0x3e80fa5e	0.25191015
1	0xbd19f147	-0.037583616
2	0xbe7e2f03	-0.24822621
3	0x3e68ce8b	0.2273504
4	0xbe5bef54	-0.21478015
5	0xb967c77d	-0.00022104192
6	0x3e3eaea9	0.18621315
7	0x3e37fa42	0.1796656
8	0x3d8cb6e9	0.06870825
9	0x3cda62a4	0.026658364
10	0xbdc6997f	-0.09697246
11	0xbe34173f	-0.17586993
12	0xbdfb3ee7	-0.12267857
13	0x3e278de1	0.16362716
14	0xbe11c494	-0.14235145
15	0xbe6dc25e	-0.23218676
16	0x3c61aacb	0.01377363
17	0xbd2f876b	-0.042853754
18	0xbdf5502f	-0.119781844
19	0x3e2d2101	0.16907121
20	0x3e008547	0.12550841
21	0x3e78f427	0.24311887
22	0xbe187150	-0.14886975
23	0x3d543f7b	0.051818352
24	0xbdcfea5d	-0.10152123
25	0xbe518a3b	-0.20462887
26	0xbd04fa01	-0.032464985
27	0xbd451d2d	-0.048123527
28	0x3e4cbf94	0.19994956
29	0x3e64858b	0.22316568
30	0x3c99e9c8	0.018788233
31	0x3d7a2939	0.06107447
32	0xbe43807b	-0.1909198
33	0xbe465850	-0.19369626
34	0xbe5bfaa0	-0.21482325
35	0x3d63bc56	0.055599533
36	0x3e5ebd64	0.21751934
37	0x3d98da3c	0.074635
38	0xbe348139	-0.1762742
39	0xbe34cc41	-0.17656042
40	0x3dad0e2f	0.08449971
41	0x3de379cb	0.111072145
42	0xbcbb4355	-0.022859255
43	0xbe3c7f38	-0.18407905
44	0xbd365504	-0.04451467
45	0x3e2825dd	0.16420694
46	0xbb1ee012	-0.0024242443
47	0xbdb5a870	-0.088700175
48	0xbe7e1eea	-0.2481648
49	0x3b158ac8	0.0022818316
50	0x3da3266d	0.079663135
51	0x3e015380	0.12629509
52	0x3c46cb48	0.012133427
53	0xbe4ee90a	-0.20206085
54	0xbd38b08f	-0.045090254
55	0xbe17f9c7	-0.14841376
56	0x3e3ea9f9	0.18619527
57	0xbe3284f7	-0.17433535
58	0xbe6f9bb2	-0.23399237
59	0x3ad1d5bf	0.0016009136
60	0xbe25d5c4	-0.16194826
61	0x3e339e18	0.17540777
62	0x3d2ed49f	0.04268324
63	0x3e5edd7e	0.2176418
64	0xbe0e7cd2	-0.13914803
65	0x3e0c0b49	0.1367618
66	0x3cbd2ec0	0.023093581
67	0xbe2db503	-0.16963582
68	0xbe7fe561	-0.24989845
69	0x3d063c38	0.032772273
70	0xbe08809a	-0.13330308
71	0x3e371918	0.17880666
72	0x3c7ccd8f	0.015429868
73	0xbd333671	-0.04375309
74	0xbccbb2ef	-0.024865596
75	0xbe715cda	-0.23570576
76	0x3d56508a	0.0523229
77	0x3e00bd77	0.12572275
78	0x3e4407d4	0.19143611
79	0x3e69f365	0.22846754
80	0xbe6a4bae	-0.22880432
81	0xbcb42e77	-0.021994812
82	0xbe3ea26f	-0.18616651
83	0xbd8c7bfc	-0.06859586
84	0xbdb8896b	-0.090105854
85	0x3e4ee099	0.20202865
86	0xbd0353f4	-0.032062486
87	0xbda13378	-0.07871145
88	0x3e395e67	0.18102418
89	0xbe4ce128	-0.20007765
90	0xbdcf843f	-0.10132646
91	0xbe26b751	-0.16280867
92	0xbe36bd2f	-0.17845605
93	0x3cb3aefc	0.021934025
94	0xbe6ae902	-0.22940448
95	0x3e77c770	0.24197173
96	0x3e21c25a	0.15796795
97	0x3e725011	0.23663355
98	0xbe17b31b	-0.14814417
99	0xbe79e1ed	-0.2440259
100	0x3da02ae2	0.07820679
101	0x3bedd648	0.0072582103
102	0x3e0dc6e0	0.13845396
103	0xbde8b85f	-0.11363291
104	0x3c801292	0.015633855
105	0xbe00edd6	-0.12590727
106	0xbe24b77a	-0.16085616
107	0x3b740f4b	0.003724056
108	0x3e4bd3e1	0.19905044
109	0xbcfe3b74	-0.031034209
110	0xbd3b4322	-0.04571832
111	0xbe5091da	-0.20368138
112	0x3e4d3d1e	0.20042846
113	0xbd222954	-0.039590195
114	0xbdd254b4	-0.10270062
115	0x3d1a0b31	0.03760833
116	0x3e58d296	0.21174082
117	0x3e109c87	0.1412221
118	0xbd54848c	-0.05188422
119	0xbe59fc47	-0.21287642
120	0xbde68bd7	-0.11257141
121	0xbcb3c779	-0.021945702
122	0xbe28bfae	-0.1647937
123	0x3e63ca3b	0.22245114
124	0xbde68e23	-0.11257579
125	0x3e2c143a	0.16804591
126	0x3de70a25	0.11281232
127	0x3e5b4e65	0.21416624
128	0xbe2dcc5d	-0.1697249
129	0xbe73e858	-0.23819101
130	0x3def89eb	0.11696228
131	0x3d74d42e	0.059772663
132	0xbe092261	-0.13392021
133	0x3d260eec	0.040541574
134	0x3e57fd6f	0.21092771
135	0x3dc4d12c	0.09610209
136	0xbe7f0419	-0.24903907
137	0xbd9957cc	-0.07487449
138	0xbe5d9b94	-0.2164138
139	0x3d9b8cc7	0.075952105
140	0xbe247a63	-0.16062312
141	0x3e2dd63f	0.1697626
142	0x3da62232	0.08111991
143	0x3e0abc92	0.13548496
144	0xbd34bcb4	-0.044125274
145	0x3d782cc7	0.060589578
146	0x3e833bf9	0.25631693
147	0x3d0c6ca0	0.03428328
148	0xbe5fb3c4	-0.21845919
149	0xbbee2683	-0.0072677745
150	0xbdd1670e	-0.10224734
151	0x3ddb4445	0.10706381
152	0x3e3bb3be	0.18330285
153	0x3e039288	0.12848866
154	0xbdae80a2	-0.085206285
155	0x3dfab404	0.122413665
156	0xbe321ea2	-0.17394498
157	0xbd4b3f64	-0.049621
158	0xbc0fceb2	-0.008777307
159	0x3cd3113e	0.025765058
160	0x3da7aacf	0.08186876
161	0x3caf6230	0.021409124
162	0xbdfd605d	-0.123718955
163	0xbe49ae80	-0.19695473
164	0xbdfc482c	-0.12318453
165	0x3e642238	0.22278678
166	0xbb3d855d	-0.0028918602
167	0x3c3eaf50	0.011638477
168	0x3e6b8704	0.23000723
169	0xbe1ed600	-0.15511322
170	0xbe1dcf73	-0.15411167
171	0x3d4a40a0	0.049378037
172	0xbe127789	-0.14303412
173	0xbe15099c	-0.14554447
174	0xbdd1a290	-0.102360845
175	0xbd30068b	-0.04297499
176	0xbcb7f217	-0.022454305
177	0x3e2611c1	0.1621771
178	0x3e2a69cc	0.16641921
179	0xbe5dcca6	-0.21660098
180	0x3d83be3b	0.06432768
181	0xbe1e03a9	-0.15431084
182	0xbde00b1f	-0.10939621
183	0x3c63e57c	0.013909694
184	0xbe302b82	-0.17204097
185	0xbd6982f4	-0.057009652
186	0x3dc956f4	0.09831038
187	0xbb6ef295	-0.0036460508
188	0xbe367756	-0.1781896
189	0xbd95834b	-0.07300433
190	0xbe6a3eed	-0.22875567
191	0xbe626a47	-0.22110854
192	0x3d1f20eb	0.038849752
193	0x3d14fbe6	0.03637304
194	0x3d6f3220	0.058397412
195	0xbe6e4c5f	-0.23271321
196	0xbe2af755	-0.16695912
197	0x3e36e679	0.17861356
198	0x3e11b920	0.14230776
199	0xbc61cf49	-0.013782331
200	0xbe063a0d	-0.13108082
201	0x3e15894c	0.14603156
202	0x3c270a63	0.0101953475
203	0x3e586df1	0.2113569
204	0xbd227830	-0.0396654
205	0xbe847aa6	-0.25874823
206	0xbe30b188	-0.17255223
207	0x3e04262d	0.12905188
208	0x3c2d97e4	0.010595296
209	0xbe0982a8	-0.13428748
210	0xbcc8802c	-0.02447518
211	0xbe52f673	-0.20601825
212	0xbded9e5b	-0.116024695
213	0xbe07baa9	-0.13254799
214	0xbe3729aa	-0.17886987
215	0xbe4f9858	-0.20272958
216	0xbe077580	-0.13228416
217	0xbdef285c	-0.1167762
218	0x3d91424d	0.07092724
219	0xbd6d5021	-0.057937745
220	0xbe2528e1	-0.16128875
221	0xbe0fb410	-0.14033532
222	0x3e41581a	0.18881264
223	0x3e458d5b	0.19292204
224	0x3e6d5ad9	0.23179187
225	0xbd7ced2a	-0.061749615
226	0x3dcb2878	0.09919828
227	0x3c797f31	0.015228079
228	0x3dff5ff8	0.124694765
229	0x3df8823e	0.12134217
230	0xbd156c5b	-0.03648029
231	0xbd2e8ad6	-0.042612873
232	0xbd5a5f93	-0.053313803
233	0x3df52281	0.11969472
234	0x3da5ae7a	0.080899194
235	0x3d0d846c	0.034550115
236	0x3d118562	0.035527594
237	0x3e09bac1	0.13450147
238	0xbbd6d97d	-0.0065566883
239	0x3df45d20	0.11931825
240	0x3dd8826a	0.105717495
241	0xbe2c5dbd	-0.16832633
242	0xbe13a8c3	-0.14419846
243	0x3e5554ff	0.20833205
244	0x3dd6009d	0.10449336
245	0x3e2b55a0	0.16731882
246	0x3d896c05	0.06710056
247	0x3d1cc7e8	0.038276583
248	0x3e055761	0.13021614
249	0xbe477eac	-0.19481915
250	0x3def026d	0.116703846
251	0x3e4d4dab	0.20049159
252	0xbd19721d	-0.037462343
253	0xbe0d80f8	-0.13818729
254	0xbe166876	-0.14688286
255	0x3e54f883	0.20797925

fc1.bias f4 [64]
0	0x3dbb5a34	0.09148064
1	0x3df6255e	0.12018846
2	0xbd08337c	-0.033252224
3	0xbdba25f2	-0.09089269
4	0xbe4e553b	-0.201497
5	0xbe288e15	-0.1646045
6	0xbc85dc5e	-0.01634043
7	0x3d1e6911	0.038674418
8	0xbe8a16a8	-0.2697041
9	0x3e027f75	0.12743933
10	0xbde400e5	-0.11132983
11	0x3e9c3e91	0.30516484
12	0xbe5f4406	-0.21803293
13	0xbe9a9cc6	-0.30197734
14	0xbe62413c	-0.22095197
15	0x3e45403f	0.19262789
16	0x3e2633d0	0.16230702
17	0xbce2a298	-0.027665421
18	0x3e603f78	0.21899211
19	0x3de028c4	0.109452754
20	0xbe50d7b8	-0.2039479
21	0xbc9d8f34	-0.019233324
22	0xbea012ee	-0.31264442
23	0xbdbb4077	-0.09143155
24	0x3db69bbb	0.08916422
25	0x3e8516fb	0.25994095
26	0xbe09b2c3	-0.13447098
27	0x3da31fcb	0.079650484
28	0xbe24f1ee	-0.16107914
29	0xbd6bc8d9	-0.05756459
30	0x3de379d0	0.11107218
31	0x3d4fba24	0.050714627
32	0xbed97b0a	-0.42476684
33	0xbe0b3999	-0.1359619
34	0x3e80c716	0.2515189
35	0x3d2fdc39	0.04293463
36	0xbd567a72	-0.052362867
37	0x3daea9d1	0.08528484
38	0x3da137af	0.07871949
39	0x3e854d91	0.2603574
40	0xbe244b6b	-0.16044395
41	0xbd80f119	-0.06295986
42	0x3e66cf66	0.22540054
43	0xbe11dfc7	-0.1424552
44	0xbe4cee30	-0.20012736
45	0x3deb7222	0.114963785
46	0xbe924330	-0.28566885
47	0xbe28e03a	-0.16491786
48	0x3e570d22	0.21001104
49	0xbe85910e	-0.2608723
50	0x3dab9759	0.08378477
51	0x3dc46921	0.09590364
52	0x3e41ecbf	0.18937968
53	0xbe6a7ec2	-0.22899917
54	0xbe45b049	-0.19305529
55	0x3d03aa22	0.032144673
56	0xbe3dffce	-0.18554613
57	0x3c1d0c4d	0.009585452
58	0xbe45c4bf	-0.19313334
59	0x3e2deee1	0.16985656
60	0xbe190397	-0.14942776
61	0xbe38221e	-0.17981765
62	0xbd1d4b0c	-0.03840165
63	0xbe4e1b5f	-0.20127629

norm1.weight f4 [64]
0	0x3f88578b	1.0651716
1	0x3f821c0c	1.0164809
2	0x3f7eb107	0.9948887
3	0x3f76de25	0.96432716
4	0x3f7fae3c	0.99875236
5	0x3f7ebc68	0.99506235
6	0x3f7e58e4	0.99354386
7	0x3f7ff3d9	0.99981457
8	0x3f81b73c	1.0134044
9	0x3f7c799b	0.98623055
10	0x3f80093c	1.0002818
11	0x3f896bad	1.0735985
12	0x3f80db08	1.0066843
13	0x3f811fbf	1.0087813
14	0x3f7ca9b1	0.9869643
15	0x3f810528	1.0079699
16	0x3f7f01c4	0.9961207
17	0x3f824060	1.0175896
18	0x3f7c953b	0.9866521
19	0x3f807c09	1.0037853
20	0x3f7e7739	0.9940067
21	0x3f7ea3aa	0.9946848
22	0x3f80d68e	1.0065477
23	0x3f79fb0a	0.9764868
24	0x3f7b1b09	0.9808813
25	0x3f7fb961	0.9989224
26	0x3f85359c	1.0406985
27	0x3f7eb878	0.99500227
28	0x3f7f3610	0.9969187
29	0x3f810b9d	1.0081669
30	0x3f814d1a	1.0101655
31	0x3f7e0d62	0.9923917
32	0x3f8b822a	1.0899098
33	0x3f81776a	1.0114567
34	0x3f83dd04	1.0301824
35	0x3f8115e3	1.0084804
36	0x3f7b7866	0.9823059
37	0x3f7d2484	0.98883843
38	0x3f848eac	1.035604
39	0x3f858c24	1.0433393
40	0x3f8084e0	1.004055
41	0x3f80acba	1.0052712
42	0x3f7f7c35	0.997989
43	0x3f80bd13	1.0057701
44	0x3f80d070	1.006361
45	0x3f815488	1.0103922
46	0x3f840891	1.0315114
47	0x3f80df55	1.0068156
48	0x3f7be1d8	0.98391485
49	0x3f7c73a3	0.9861395
50	0x3f78e67e	0.97226703
51	0x3f799d05	0.9750522
52	0x3f7cb644	0.98715615
53	0x3f80cfda	1.0063431
54	0x3f7f33aa	0.9968821
55	0x3f815be2	1.0106165
56	0x3f71783a	0.94324076
57	0x3f812b5e	1.009136
58	0x3f7e93e8	0.9944444
59	0x3f7d5373	0.9895546
60	0x3f79bc40	0.9755287
61	0x3f7d7b44	0.99016213
62	0x3f7f4a3f	0.99722666
63	0x3f823894	1.0173516

norm1.bias f4 [64]
0	0x3d071768	0.032981306
1	0x3c3fa4d9	0.011697018
2	0xbaf27daa	-0.0018500586
3	0xbca16429	-0.01970108
4	0x3a94acb1	0.001134297
5	0xbaed3872	-0.0018098487
6	0x3c0effc8	0.008727975
7	0xbb673abf	-0.0035282818
8	0xbca6437b	-0.02029585
9	0xbc7d95e1	-0.015477628
10	0xbb199753	-0.0023436144
11	0x3ca670ec	0.020317517
12	0x3bb30155	0.0054628053
13	0xbc142660	-0.009042352
14	0xbc45766d	-0.012052161
15	0xbc04a118	-0.008095048
16	0x39fd6ce7	0.0004833706
17	0x3ca5dd5a	0.02024715
18	0xbc425268	-0.0118604675
19	0xbcb61d23	-0.02223069
20	0xbaf6fb0c	-0.0018843128
21	0x3a85733d	0.0010181438
22	0xbc38cfdc	-0.011280026
23	0xbc60b159	-0.013714158
24	0xbc991663	-0.018687433
25	0xbb93c631	-0.0045097102
26	0x3d14368c	0.036184832
27	0xbb7e075d	-0.0038761713
28	0xbb109294	-0.0022060024
29	0x3ba42f8e	0.005010552
30	0x3ba3c79b	0.00499816
31	0xbb714b39	-0.0036818518
32	0x3b51aded	0.0031994537
33	0xbbe97ac3	-0.00712523
34	0x3c0bd4f6	0.008534661
35	0x3ca573e9	0.020196872
36	0xbc888c3f	-0.016668437
37	0xbc585015	-0.013202687
38	0x3bda0be1	0.006654248
39	0x3d146972	0.036233373
40	0x3b9224f6	0.0044599725
41	0xbaaa3b90	-0.0012987722
42	0x3bbbfe39	0.005737093
43	0x3c3eb7a7	0.011640466
44	0x3ba2ed49	0.0049721343
45	0x3c196a45	0.009363716
46	0xbcb5dc1a	-0.02219968
47	0x3b9b8f7d	0.0047473297
48	0xbcb490a3	-0.022041624
49	0xbc28758c	-0.010281932
50	0xbc97805f	-0.01849383
51	0xbca50210	-0.020142585
52	0xbba21ebb	-0.004947511
53	0x3bffd125	0.0078069144
54	0xbb802fc1	-0.0039119427
55	0x3c3c9a43	0.011511388
56	0xbd27ff3b	-0.04101489
57	0x3c4af06d	0.012386424
58	0xbbfbe4ff	-0.0076872106
59	0xbc2fa848	-0.010721274
60	0xbd03e050	-0.032196343
61	0xbb95d0f8	-0.00457203
62	0xbb8eed61	-0.004361794
63	0x3c218031	0.009857223

fc2.weight f4 [64, 64]
0	0x3d99599a	0.07487793
1	0x3d3fda17	0.046838846
2	0x3dbdd863	0.09269788
3	0x3dea717c	0.11447427
4	0x3d9c41d6	0.07629745
5	0x3d385b45	0.045008916
6	0xbcb83277	-0.022485001
7	0x3d8dc406	0.06922154
8	0xbd999f5d	-0.07501099
9	0xbbf8fca5	-0.007598477
10	0x3d098ca3	0.033581387
11	0x3c35e0a2	0.01110092
12	0xbcdfc09a	-0.02731352
13	0xbcd70717	-0.026248498
14	0xbdaf898b	-0.08571156
15	0x3d12fe84	0.035887256
16	0x3db222d7	0.086980514
17	0x3d5750a0	0.052567124
18	0xbc871f52	-0.016494427
19	0xbc878b59	-0.016545938
20	0xbdb89f7c	-0.09014794
21	0x3db1966f	0.08671271
22	0x3e43b1fd	0.19110866
23	0x3c3327fd	0.010934827
24	0xbd7c11a8	-0.061540276
25	0xbd827537	-0.06370013
26	0x3dc05ad3	0.09392323
27	0x3d408e29	0.047010574
28	0x3cbadc29	0.022810059
29	0x3d4a2a2e	0.049356632
30	0x3db8eef0	0.09029949
31	0x3d9c3f2e	0.07629238
32	0x3d3b0e07	0.045667674
33	0x3e2b7339	0.16743173
34	0xbdc13550	-0.09433997
35	0x3c6d774e	0.0144937765
36	0x3ce165d0	0.027514368
37	0x3d35013a	0.044190623
38	0xbda70d23	-0.081568025
39	0xbc30a09b	-0.010780479
40	0x3d79669f	0.060888883
41	0x3dbc24d6	0.091867134
42	0xbde7babe	-0.11314915
43	0x3d79972b	0.06093518
44	0x3dcaa73a	0.09895177
45	0xbd4c3a84	-0.049860492
46	0x3d993afd	0.07481954
47	0x3d985ac4	0.07439187
48	0xbd199fca	-0.037505902
49	0x3d4841e3	0.04889096
50	0xbd9db39b	-0.07700273
51	0xbd34f1c4	-0.04417588
52	0x3d35300b	0.04423527
53	0x3daddedb	0.08489772
54	0x3d256948	0.040383607
55	0x3d07fdd3	0.03320105
56	0xbda4e4d7	-0.0805146
57	0xbe02fcd2	-0.12791756
58	0xbc04391e	-0.008070258
59	0x3d14097f	0.03614187
60	0x3b980143	0.0046388223
61	0xbd88209c	-0.06646845
62	0xbd7a0c95	-0.061047155
63	0xbdb920fb	-0.09039494
64	0xbd673904	-0.05645086
65	0xbdd88f01	-0.10574151
66	0x3dc1b93a	0.09459157
67	0x3dc39376	0.0954961
68	0x3ddf018e	0.108889684
69	0x3dc90208	0.098148406
70	0xbca29561	-0.01984662
71	0xbd61af01	-0.055098537
72	0x3cd9f5b4	0.026606418
73	0x3dd5787f	0.104233734
74	0x3dcd42bd	0.10022495
75	0x3ceb6dad	0.02873882
76	0x3deac0ef	0.114625804
77	0xbdb51c37	-0.08843272
78	0xbc25af68	-0.010112621
79	0xbdd566e9	-0.10420019
80	0xbcb84d7d	-0.022497887
81	0xbd5c2171	-0.05374283
82	0x3d904e4d	0.07046185
83	0x3db7954e	0.089640245
84	0xbd86d1ed	-0.06583009
85	0xbcee435d	-0.029084856
86	0xbd3c4023	-0.045959603
87	0x3d79a34d	0.06094675
88	0xbda116d0	-0.07865679
89	0x3d669694	0.056295946
90	0x3df31e15	0.11870972
91	0xbdd38cd3	-0.103295945
92	0x3d63cee6	0.055617236
93	0x3dcd1e26	0.10015516
94	0x3dfc2d87	0.12313371
95	0xbd3799d7	-0.044824447
96	0x3dc358e9	0.09538443
97	0x3ddd0179	0.107912965
98	0xbd96cab9	-0.07362885
99	0xbd82af19	-0.063810535
100	0x3e0ee24d	0.13953514
101	0xbb7aa003	-0.0038242347
102	0x3be3a356	0.0069469614
103	0x3d159675	0.03652044
104	0x3d610338	0.05493471
105	0x3df9d975	0.1219968
106	0x3e018ea0	0.12652063
107	0xbd227531	-0.039662544
108	0xbdf3adb0	-0.11898363
109	0x3d65f26d	0.0561394
110	0xbaa440f8	-0.0012531569
111	0x3d8ce9b5	0.068805136
112	0xbc931d5c	-0.017958336
113	0xbcd15777	-0.025554402
114	0xbd71971a	-0.058981992
115	0xbc9302bb	-0.017945638
116	0xbd9c0148	-0.07617432
117	0xbd148a13	-0.03626449
118	0x3dc35b26	0.095388696
119	0xbd8943e1	-0.067024
120	0xbc1aed1c	-0.009455945
121	0xbbb40fb6	-0.005495037
122	0xbd65b58a	-0.056081332
123	0xbd35016a	-0.0441908
124	0x3c8463c2	0.01616085
125	0xbdc802e5	-0.09766177
126	0x3d652305	0.0559416
127	0x3daac75b	0.08338805
128	0x3da183a4	0.078864366
129	0x3dde3041	0.108490475
130	0xbdd3a341	-0.103338726
131	0xbdc50ed8	-0.09621972
132	0xbdebd9ea	-0.11516173
133	0x3de8261b	0.11335393
134	0xbde62086	-0.11236672
135	0x3d81c800	0.06336975
136	0xbdb3654b	-0.087595545
137	0x3db901e7	0.09033566
138	0xbdc803a8	-0.097663224
139	0xbd550c22	-0.052013524
140	0xbb4be5af	-0.0031112244
141	0x3d9d2cd0	0.07674563
142	0x3de067f8	0.109573305
143	0x3ca2e433	0.019884204
144	0xbdca5af8	-0.09880632
145	0x3dde8373	0.10864916
146	0xbdbd8cae	-0.09255348
147	0xbdd6d829	-0.10490448
148	0x3d0b57ed	0.0340194
149	0xbc05d017	-0.008167288
150	0x3cb55061	0.022133054
151	0x3c677073	0.014125931
152	0x3e03dbe3	0.12876849
153	0x3de53255	0.11191241
154	0x3d8d2720	0.06892228
155	0xbd248c6f	-0.04017299
156	0xbd9ddd6d	-0.07708249
157	0xbd1bca7a	-0.038034894
158	0xbd33df7b	-0.0439143
159	0x3cb534f0	0.02211997
160	0x3d03b8eb	0.032158773
161	0x3cdf277d	0.02724051
162	0xbdc72dbf	-0.09725522
163	0x3dbbc359	0.09168119
164	0x3d569c82	0.05239535
165	0xbc801913	-0.015636956
166	0xbdc583f0	-0.09644306
167	0xbdd59d15	-0.10430352
168	0x3c3c28db	0.01148435
169	0xbdbc2c4e	-0.09188138
170	0x3df7723b	0.120823346
171	0xbdab217b	-0.08355995
172	0x3b5ea740	0.00339742
173	0xbe0079fa	-0.1254653
174	0x3dbabf6a	0.091185406
175	0x3d6c6f3e	0.057723276
176	0x3e082ff0	0.13299537
177	0x3d840e4e	0.06448041
178	0xbdba705b	-0.09103461
179	0xbc0f5c0c	-0.008749973
180	0x3bc098ed	0.005877605
181	0xbd49befc	-0.049254403
182	0x3aaf4d02	0.001337439
183	0x3d43e4a1	0.04782546
184	0xbccb572c	-0.02482184
185	0x3d084a38	0.033273906
186	0xbd17c843	-0.03705622
187	0xbde1f050	-0.11032164
188	0x3d5f00c8	0.054444104
189	0x3bf272ba	0.0073989304
190	0xbc8dc730	-0.017306894
191	0x3ca19fb4	0.019729473
192	0x3d127491	0.035755698
193	0x3dccd945	0.100023784
194	0xbd3af143	-0.04564024
195	0xbda6033b	-0.08106085
196	0xbdcb9319	-0.09940166
197	0xbdc6af2e	-0.097013816
198	0x3d90d14b	0.070711695
199	0x3da209d0	0.07912028
200	0xb9c04162	-0.00036669808
201	0xbc8516d1	-0.016246231
202	0xbcf9e9c1	-0.03050697
203	0x3d79e7dc	0.061012134
204	0xbcf7a54c	-0.030230187
205	0xbb4bdfd8	-0.0031108763
206	0xbd862db9	-0.0655169
207	0x3d8d7fe3	0.06909158
208	0x3d6a50a3	0.057205807
209	0x3d9ec1c1	0.077517994
210	0xbd6f0e38	-0.05836317
211	0xbd1d74f3	-0.03844161
212	0x3deed9e3	0.11662652
213	0xbcc5573b	-0.024089446
214	0x3e104593	0.1408904
215	0xbc9afacb	-0.018918416
216	0xbde640c5	-0.112428226
217	0x3c8531b6	0.016259056
218	0xbd8f8268	-0.07007295
219	0x3c9d084b	0.019168993
220	0xbd89d0ee	-0.06729303
221	0xbd999132	-0.07498397
222	0x3ccbd163	0.024880117
223	0x3dcacf42	0.099028125
224	0x3d91fe05	0.071285285
225	0x3dfe061f	0.12403511
226	0x3c4b3594	0.012402911
227	0xbd9dc731	-0.07704008
228	0x3aa72915	0.0012753332
229	0xbdcb6192	-0.099307194
230	0x3d4f1168	0.05055371
231	0xbdf0f3b5	-0.117652334
232	0xbdd3bfb3	-0.10339298
233	0x3dcffc5f	0.10155558
234	0x3d22de07	0.039762523
235	0x3d8d6d13	0.0690557
236	0x3c9f979b	0.01948147
237	0x3db1e44b	0.086861216
238	0xbd423d55	-0.047421772
239	0x3be24350	0.006904997
240	0xbc957f37	-0.018249137
241	0x3d9676c5	0.07346872
242	0x3b4c3831	0.0031161422
243	0x3da84197	0.08215635
244	0x3d9902ca	0.07471235
245	0x3cf46a76	0.02983592
246	0xbd87f933	-0.06639328
247	0x3dbea507	0.0930882
248	0xbd873115	-0.066011585
249	0xbce029e6	-0.027363729
250	0xbd86d12a	-0.06582864
251	0xbdd6fadf	-0.104970686
252	0xbd6fd237	-0.058550086
253	0xbbbc6cb8	-0.005750265
254	0x3c5b9eb8	0.013404541
255	0x3d706ce9	0.058697615

fc2.bias f4 [64]
0	0x3dc76fdd	0.09738133
1	0xbcd0466d	-0.025424207
2	0x3c87e37f	0.01658797
3	0x3c381b96	0.011237046
4	0x3b80687d	0.003918706
5	0x3d9fcaa7	0.07802325
6	0xbd3e7aac	-0.046503708
7	0x3dd8ac67	0.10579758
8	0xbd89a801	-0.06721497
9	0x3e02a6fd	0.12759013
10	0xbc3c2ea5	-0.01148573
11	0x3dab409e	0.08361934
12	0xbb30d002	-0.002697945
13	0xbc64a69e	-0.01395574
14	0x3ddc0b7e	0.107443795
15	0x3cdefd08	0.027220264
16	0xbcff44d6	-0.031160753
17	0x3d718e49	0.058973584
18	0xbdc56386	-0.09638123
19	0xbd1490e3	-0.036270987
20	0xbd857c6d	-0.06517873
21	0x3d42e471	0.04758114
22	0x3d1f9b0d	0.038966227
23	0xbd4b3cb9	-0.049618457
24	0x3da52e25	0.08065442
25	0x3d49271c	0.049109563
26	0x3de377fc	0.111068696
27	0x3e067586	0.13130769
28	0x3ca30315	0.01989893
29	0x3daa4dfa	0.08315654
30	0xbd9617fc	-0.073287934
31	0xbdaaf26c	-0.083470196
32	0xbb4d0fa5	-0.0031289842
33	0xbd2a46eb	-0.04157154
34	0x3c49ec9c	0.0123244785
35	0xbd27d3e5	-0.040973563
36	0xbc8a6d58	-0.016897842
37	0xbdfcea22	-0.12349345
38	0xba2ed6f2	-0.00066696026
39	0x3d845e49	0.06463296
40	0x3ddb84c7	0.10718685
41	0x3da6b486	0.08139901
42	0x3bc456d0	0.005991794
43	0xbd176a29	-0.036966477
44	0xbd519aa3	-0.051172864
45	0x3d9f018d	0.07763968
46	0xbcd53bd1	-0.0260295
47	0xbd5654ba	-0.052326895
48	0xbd52b02a	-0.051437534
49	0xbcc991c8	-0.024605647
50	0xbcf897cd	-0.030345822
51	0x3d3a7ea9	0.04553095
52	0x3cded9f5	0.02720354
53	0x3e048c4d	0.12944146
54	0xbd6de39e	-0.0580784
55	0x3df8ef47	0.121550135
56	0xbd9d36a4	-0.076764375
57	0xbd061a27	-0.032739785
58	0xbdd43819	-0.10362262
59	0x3e12c188	0.14331639
60	0xbda9cd30	-0.082910895
61	0xbcf26713	-0.029590165
62	0xbd5fc42a	-0.054630436
63	0xbd0e5a04	-0.034753814

norm2.weight f4 [64]
0	0x3f7f9fe0	0.99853325
1	0x3f7da7c2	0.99084103
2	0x3f818691	1.0119191
3	0x3f8018fe	1.0007627
4	0x3f8fc840	1.1232986
5	0x3f7e2701	0.99278265
6	0x3f7c9686	0.9866718
7	0x3f81c307	1.0137643
8	0x3f7d0047	0.9882855
9	0x3f80c381	1.0059663
10	0x3f8822ef	1.0635661
11	0x3f829888	1.0202799
12	0x3f802d25	1.0013777
13	0x3f7f24e5	0.9966567
14	0x3f86601f	1.0498084
15	0x3f7f0075	0.9961007
16	0x3f8b6fe9	1.0893527
17	0x3f8057af	1.0026759
18	0x3f80273a	1.0011971
19	0x3f80a023	1.004887
20	0x3f7f5a34	0.99747014
21	0x3f80b02a	1.0053761
22	0x3f82cd36	1.0218875
23	0x3f8eea5a	1.1165268
24	0x3f804b88	1.002305
25	0x3f82233c	1.0167003
26	0x3f850d98	1.0394773
27	0x3f978f59	1.1840621
28	0x3f7dea62	0.99185765
29	0x3f8869fc	1.0657344
30	0x3f85d7bb	1.0456461
31	0x3f7c5415	0.985658
32	0x3f8a617a	1.0810997
33	0x3f7eb8c2	0.9950067
34	0x3f8ff850	1.1247654
35	0x3f900075	1.125014
36	0x3f80045a	1.0001328
37	0x3f7c8f5e	0.9865626
38	0x3f917097	1.1362485
39	0x3f7c24e7	0.9849381
40	0x3f7ffe21	0.99997145
41	0x3f7d76d3	0.99009436
42	0x3f96b040	1.1772537
43	0x3f84e31a	1.0381806
44	0x3f8f202b	1.1181692
45	0x3f906be4	1.1282926
46	0x3f8f115e	1.1177175
47	0x3f7de0d2	0.99171174
48	0x3f8171db	1.0112871
49	0x3f8ad4fc	1.0846248
50	0x3f7dd7b4	0.9915726
51	0x3f8472d0	1.0347538
52	0x3f813990	1.0095692
53	0x3f86df93	1.053698
54	0x3f7d6222	0.98977864
55	0x3f80f070	1.0073376
56	0x3f81673c	1.010963
57	0x3f8be1ad	1.0928246
58	0x3f8417de	1.0319784
59	0x3f8d8031	1.1054746
60	0x3f7c5b17	0.9857649
61	0x3f81fd2c	1.0155387
62	0x3f86b733	1.0524658
63	0x3f821c66	1.0164917

norm2.bias f4 [64]
0	0x3a4059cc	0.00073375995
1	0xbc78e02f	-0.015190168
2	0x3ca6c2e3	0.020356601
3	0xbae35a41	-0.0017345623
4	0x3de4d8af	0.111741416
5	0xbbf714dd	-0.007540329
6	0xbc9a0cbe	-0.018804904
7	0x3cd06367	0.025438024
8	0xbbd11c64	-0.0063815583
9	0xba797910	-0.0009516636
10	0x3d772fbd	0.06034826
11	0x3c5093a1	0.01273051
12	0xba545ec4	-0.00081012794
13	0xbbe381b8	-0.006942954
14	0x3d5c5463	0.053791415
15	0xbb08cc85	-0.0020873856
16	0x3da0ded2	0.078549996
17	0xbb3a9873	-0.0028472214
18	0xba483614	-0.0007637453
19	0x3c1ad52a	0.009450236
20	0xbab39f86	-0.0013704158
21	0x3be198bd	0.006884663
22	0x3c725307	0.014790303
23	0x3de3961d	0.11112616
24	0xbb84f0c3	-0.0040570213
25	0x3bd8b1fd	0.0066130147
26	0x3d53b72e	0.051688366
27	0x3dbc06f1	0.091810115
28	0xbb77706c	-0.0037756218
29	0x3d3100e5	0.043213744
30	0x3d90a898	0.07063407
31	0xbc454180	-0.012039542
32	0x3d74df52	0.059783287
33	0xbba596c5	-0.0050533735
34	0x3daefe38	0.08544582
35	0x3dc06f86	0.093962714
36	0x3b52220a	0.0032063746
37	0xbc392faf	-0.011302873
38	0x3d4f10f7	0.05055329
39	0xbcc10f94	-0.023566999
40	0x3b6edb0c	0.003644648
41	0xbc110aeb	-0.008852701
42	0x3da41587	0.080119185
43	0x3caf5376	0.021402102
44	0x3dbeec62	0.0932243
45	0x3de7cf64	0.113188535
46	0x3de1bdce	0.110225305
47	0xbc48c11c	-0.012253072
48	0x3c0c74d4	0.008572776
49	0x3dbbfe0f	0.09179317
50	0xbc5027de	-0.012704818
51	0x3d20e0cc	0.039276883
52	0x3c233960	0.00996241
53	0x3d08a81d	0.03336345
54	0xbc1572e5	-0.009121631
55	0xbbd806b9	-0.0065925983
56	0x3c9d1dd5	0.019179264
57	0x3d847a14	0.06468597
58	0x3cc77f6a	0.024352748
59	0x3dd8fcae	0.1059507
60	0xbcf3e432	-0.029771898
61	0x3c59a2e4	0.013283465
62	0x3d875e01	0.06609727
63	0x3ccbba31	0.024869056

vf.weight f4 [1, 64]
0	0x3d1b44b5	0.03790732
1	0xbc377d97	-0.011199377
2	0x3d95f23d	0.07321594
3	0xbdd1da9e	-0.10246776
4	0x3c838c10	0.016057998
5	0xbd4e514b	-0.050370496
6	0x3ddcc5c1	0.10779906
7	0xbd7c77d2	-0.061637707
8	0x3d2633b9	0.04057667
9	0x3d952cc0	0.07283926
10	0x3e1456ff	0.14486311
11	0xbd9c8a5c	-0.076435775
12	0xbd150200	-0.03637886
13	0xbcb0aefe	-0.021567818
14	0xbd9884a1	-0.07447172
15	0xbdcc34f1	-0.09971035
16	0x3c7b1362	0.015324445
17	0x3cbc287e	0.022968527
18	0x3d337eaa	0.04382197
19	0xbdaea9ea	-0.08528502
20	0xbd947177	-0.07248204
21	0x3d22f027	0.03977981
22	0x3dc74688	0.0973025
23	0xbddf42fd	-0.10901449
24	0x3dc1ab2b	0.09456476
25	0xbdffb89c	-0.12486383
26	0xbd96d1fe	-0.073642716
27	0xbdada9c2	-0.08479644
28	0x3de1501f	0.1100161
29	0xbd2b17ec	-0.04177086
30	0x3d70b4d8	0.058766216
31	0xbc392014	-0.011299152
32	0x3d7bdfd2	0.06149275
33	0x3dde38a1	0.10850645
34	0x3dbc3220	0.09189248
35	0x3df2857d	0.11841867
36	0xbbf087ab	-0.0073403916
37	0xbb80df5d	-0.003932877
38	0x3d45fc05	0.048336048
39	0x3be5d996	0.0070144637
40	0xbd4e2004	-0.0503235
41	0x3da5c9fe	0.080951676
42	0x3dcec8fe	0.1009693
43	0xbe3eeb23	-0.18644385
44	0x3d206595	0.039159376
45	0xbd3cdb87	-0.046107795
46	0x3cf4fe8f	0.02990654
47	0xbdecbeda	-0.115598395
48	0xbd622022	-0.055206425
49	0x3d621e93	0.05520494
50	0x3d5c817b	0.05383442
51	0xbd2c58e2	-0.042076953
52	0xbdc97780	-0.09837246
53	0x3d83ad7f	0.06429576
54	0x3d1a6f3c	0.037703738
55	0x3dd316dc	0.103070945
56	0x3c9dedf4	0.019278504
57	0xbde58b6e	-0.11208235
58	0x3ce7b50b	0.02828457
59	0x3da48ee1	0.080350645
60	0x3dbbcd95	0.09170071
61	0xbdb38919	-0.08766384
62	0xbd2ca64e	-0.042150788
63	0x3b7d4009	0.0038642904

economy_head.weight f4 [12, 64]
0	0x3d782b58	0.06058821
1	0xbd932d4d	-0.07186375
2	0x3e0013d8	0.1250757
3	0xbcf15f90	-0.029464513
4	0x3e44492b	0.19168536
5	0x3d1f9d90	0.038968623
6	0xbd68cbc3	-0.056834947
7	0xbbf19b74	-0.007373268
8	0x3ca33697	0.019923491
9	0x3b6d2227	0.0036183686
10	0x3e1d06c6	0.15334615
11	0xbd8ac0a5	-0.06775025
12	0xbcd3c92e	-0.025852766
13	0xbdd165cd	-0.10224495
14	0x3d789774	0.060691312
15	0xbcce3432	-0.025171373
16	0x3e73510b	0.23761384
17	0xbd91f6f9	-0.071271844
18	0x3d78050c	0.060551688
19	0xbd08c8dd	-0.033394683
20	0xbd84a4b8	-0.0647673
21	0xbcbeaf7f	-0.023277042
22	0x3e1c9a32	0.15293196
23	0x3e4eafd7	0.20184265
24	0xbc622b61	-0.013804288
25	0xbdb02f52	-0.08602776
26	0x3dc52a5f	0.09627222
27	0x3e669bc9	0.22520365
28	0xbb84619a	-0.0040399553
29	0x3ddbe394	0.107367665
30	0x3db51aa6	0.088429734
31	0x3d16b4f4	0.036793664
32	0x3e4a3689	0.19747366
33	0x3d9ce8bd	0.07661579
34	0x3e863a41	0.2621632
35	0x3e51db86	0.20493898
36	0x3d43fe2f	0.04784983
37	0xbdbb1a53	-0.0913588
38	0x3df08002	0.117431656
39	0xbd244de7	-0.040113356
40	0x3d2bfe07	0.041990306
41	0xbd4fbce0	-0.050717235
42	0x3e6012ee	0.21882221
43	0xbc58a53a	-0.013222987
44	0x3e7f0f61	0.2490821
45	0x3e77d62b	0.24202792
46	0x3e6c2032	0.23059157
47	0xba94a0ab	-0.0011339387
48	0xbdb5cabb	-0.088765584
49	0x3db206bd	0.086926915
50	0xbdcefd69	-0.10106928
51	0x3dabca04	0.08388141
52	0x3d98a946	0.07454161
53	0x3e3567ea	0.17715421
54	0x3d73a542	0.059483774
55	0xbc9405c5	-0.018069157
56	0x3e2df8ea	0.16989484
57	0x3e11129b	0.14167254
58	0x3e02fa21	0.12790729
59	0x3daedce2	0.08538224
60	0x3c4ea027	0.0126114255
61	0x3d410111	0.047120158
62	0x3e1a474a	0.15066257
63	0x3d8bd983	0.068285964
64	0x3c407cfa	0.011748547
65	0x3cacd707	0.021098627
66	0x3ddac290	0.10681641
67	0xbde5a865	-0.11213759
68	0xbc3f2437	-0.011666349
69	0x3cbb08ca	0.02283134
70	0xbde8e8d8	-0.113725364
71	0x3e007089	0.12542929
72	0xbda9bfa7	-0.08288508
73	0x3d1de448	0.038547784
74	0xbd8c8ad7	-0.06862419
75	0x3e0a18ef	0.13486074
76	0xbdbaa844	-0.09114125
77	0x3d37e9fd	0.044900883
78	0x3d6d3014	0.05790718
79	0x3d3faf50	0.04679805
80	0x3d8ca7ed	0.06867967
81	0x3dd885b6	0.10572378
82	0xbd8b730d	-0.068090536
83	0x3d628adc	0.055308208
84	0x3d55ea8b	0.05222563
85	0x3c4411a3	0.011967096
86	0xbd58f96c	-0.052972242
87	0xbe0e5319	-0.13898887
88	0x3cef51fd	0.0292139
89	0x3db5ce7e	0.08877276
90	0xbd342130	-0.043976963
91	0xbd82aae7	-0.06380253
92	0xbc1d7a00	-0.009611607
93	0x3d814d76	0.063136026
94	0xbd046ec2	-0.03233219
95	0xbd769c41	-0.06020761
96	0xbe0098bb	-0.12558262
97	0xbd2f88c9	-0.042855058
98	0xbcc02683	-0.023455864
99	0xbd9b4347	-0.075811915
100	0x3dd74ece	0.10513078
101	0xbd23c54c	-0.03998308
102	0xbcbc065a	-0.022952247
103	0xbd8f61a8	-0.07001048
104	0x3dba24fd	0.09089086
105	0x3cdf567f	0.027262924
106	0x3d3084cb	0.04309539
107	0xbdcc263b	-0.099682294
108	0xba330234	-0.00068286364
109	0x3d2d3897	0.042290296
110	0x3d11a1e8	0.035554796
111	0x3dcabdcc	0.09899482
112	0x3de5ab4a	0.112143114
113	0xbdc8e16a	-0.09808619
114	0xbd665966	-0.0562376
115	0x3de0fc79	0.10985655
116	0xbd44c13f	-0.048035856
117	0x3d1d293a	0.038369395
118	0xbce13e9e	-0.027495679
119	0x3dcf13e8	0.10111219
120	0x3d8db2b6	0.06918852
121	0xbdaeaa06	-0.08528523
122	0xbd82bc42	-0.063835636
123	0xbd45a87d	-0.048256386
124	0x38b09950	8.420891e-05
125	0x3d6e7730	0.058219135
126	0xbda16e11	-0.078823216
127	0x3e022ff5	0.12713607
128	0x3ca9f559	0.020746874
129	0x3de1a821	0.11018396
130	0x3d55f8b5	0.05223914
131	0xbdfae663	-0.12250974
132	0xbe30c335	-0.17261966
133	0x3d9a8e77	0.07546704
134	0xbdb68b4a	-0.08913286
135	0xbd4aaa37	-0.049478736
136	0xbd9f2c4e	-0.07772122
137	0xbdc7cbcf	-0.0975567
138	0x3d7c8f72	0.061660238
139	0x3cb4aef6	0.022056084
140	0x3da67de2	0.08129479
141	0xbca96293	-0.020676887
142	0xbe11ab6c	-0.14225549
143	0x3d2f9fcb	0.042877
144	0xbc975642	-0.018473748
145	0xbd1b846f	-0.037968095
146	0xbd93d99b	-0.07219239
147	0x3dbe8b73	0.093039416
148	0xbdade89e	-0.08491634
149	0xbe1344c0	-0.14381695
150	0xbd91323c	-0.070896596
151	0xbe033ef0	-0.12816978
152	0xbda66e98	-0.08126563
153	0xbe109c68	-0.14122164
154	0xbde8e94d	-0.113726236
155	0xbdaf7987	-0.085681014
156	0x3dc3aaa7	0.09554034
157	0xbd96a0f6	-0.073549196
158	0xbc84d3a9	-0.016214209
159	0xbdddadfd	-0.10824201
160	0x3aaa17d0	0.0012977067
161	0x3de125c3	0.109935306
162	0xbd7a3d3c	-0.061093554
163	0xbc10b6c9	-0.008832642
164	0xbd02d494	-0.03194101
165	0xbcaa318d	-0.02077558
166	0xbbcc1c89	-0.0062289876
167	0xbc2d25cb	-0.010568093
168	0x3d6a2f8b	0.057174247
169	0xbd2a31fd	-0.04155158
170	0xbe030921	-0.12796451
171	0x3d505f53	0.05087216
172	0x3d6a7bf4	0.057247117
173	0xbd7f6dd9	-0.06236062
174	0xbd854510	-0.06507313
175	0xbd8caaae	-0.06868492
176	0xbc2763b4	-0.010216642
177	0xbe01cb6c	-0.12675256
178	0x3dd43ed0	0.10363543
179	0xbdda8c1d	-0.10671256
180	0xbd7439d5	-0.059625465
181	0x3ca77f2b	0.02044638
182	0xbdcd4d1d	-0.10024474
183	0x3deee41e	0.11664604
184	0x3d1f189f	0.03884184
185	0x3b11a929	0.0022226071
186	0x3c010821	0.007875473
187	0xbe00cdc4	-0.12578493
188	0xbc2e6f33	-0.010646629
189	0xbcb82775	-0.022479752
190	0x3c330efd	0.010928866
191	0xbdeca68b	-0.11555203
192	0x3be8ac32	0.0071006054
193	0xbc7874fc	-0.01516461
194	0xbd86404d	-0.06555233
195	0xbdbfdfd9	-0.093688674
196	0xbe15ddae	-0.14635345
197	0x3d7fdbe1	0.062465552
198	0x3def3e63	0.11681821
199	0x3deb2c31	0.11483038
200	0x3d5386b8	0.05164215
201	0x3dead62d	0.11466632
202	0xbdfe577c	-0.1241903
203	0xbdc96297	-0.09833258
204	0xbdbdca85	-0.09267143
205	0xbc843873	-0.016140198
206	0xbe00e3b4	-0.12586862
207	0x3c50bd0e	0.012740387
208	0xbd21bee3	-0.039488684
209	0x3dceb479	0.10093016
210	0x3d742987	0.059609916
211	0x3dc7fd24	0.097650796
212	0x3d92ba59	0.07164449
213	0xbcad0d12	-0.021124396
214	0xbe05eac3	-0.13077836
215	0xbd8af8ce	-0.06785737
216	0xbdd138fd	-0.10215948
217	0xbde1cc06	-0.110252425
218	0x3de19156	0.11014049
219	0xbdc1de35	-0.09466211
220	0x3dd19a18	0.10234469
221	0x3cea0bf1	0.028570147
222	0x3d02cc8a	0.031933345
223	0xbdde08ea	-0.10841544
224	0xbd5873de	-0.052844875
225	0x3ddea3bc	0.108710736
226	0xbe12fb75	-0.14353736
227	0x3be072ec	0.0068496373
228	0xbdd97249	-0.10617501
229	0xbdeac79d	-0.114638545
230	0xbe0b3992	-0.1359618
231	0x3dbe2102	0.092836395
232	0x3dad4b79	0.08461661
233	0x3cd77baa	0.026304085
234	0x3db31b6f	0.08745467
235	0x3c2eba67	0.010664559
236	0x3c4e0e84	0.012576703
237	0x3d57f217	0.05272111
238	0xbe06b085	-0.13153274
239	0xbc78d21b	-0.015186812
240	0x3df91414	0.12162033
241	0x3dd9de78	0.10638136
242	0xbdafcf45	-0.085844554
243	0x3dd77bf6	0.105216905
244	0xbdb68d3a	-0.089136556
245	0xbcefead4	-0.02928678
246	0xbb22dda6	-0.002485135
247	0x3c865960	0.01640004
248	0x3d8cdd74	0.06878176
249	0xbd446c67	-0.047954943
250	0x3df61835	0.12016336
251	0xbe04335e	-0.1291022
252	0x3db1788d	0.08665571
253	0x3d970f83	0.073760055
254	0xbd4c9c62	-0.049953826
255	0xbc62fb71	-0.013853894

economy_head.bias f4 [12]
0	0x3e6e8e3d	0.23296447
1	0x3ddac38f	0.10681831
2	0x3d9cc318	0.07654399
3	0x3d0b1292	0.033953257
4	0xbd3955c1	-0.045247797
5	0x3d2e4c89	0.04255346
6	0xbdf9edf0	-0.12203586
7	0xbda7a80f	-0.081863515
8	0xbc27935b	-0.010228003
9	0xbbb5d737	-0.0055493372
10	0x3d4fdc74	0.05074735
11	0xbcecf3bc	-0.028924815

army_head.weight f4 [2, 64]
0	0xbcdbe595	-0.026842872
1	0x3ce13585	0.02749134
2	0xbd898b0f	-0.067159764
3	0xbce6f5cd	-0.028193379
4	0xbe092abf	-0.13395213
5	0x3dd94446	0.10608725
6	0xbd679900	-0.056542397
7	0x3deaf169	0.114718266
8	0xbc61452b	-0.013749401
9	0xbbcb8986	-0.0062114624
10	0x3e021596	0.12703547
11	0xbd8ae930	-0.06782758
12	0xbd7acf8d	-0.061233092
13	0xbdf8e66e	-0.12153326
14	0x3e05def4	0.13073331
15	0xbd0eb36a	-0.03483907
16	0xbd894d63	-0.067042135
17	0xbdac6714	-0.08418098
18	0x3d7a4b39	0.061106894
19	0x3de2d312	0.11075415
20	0xbd358088	-0.04431203
21	0x3d59cb83	0.0531726
22	0xbdb9932d	-0.09061275
23	0x3dad76a8	0.084698975
24	0x3d93c110	0.07214558
25	0x3b2c30e3	0.0026274256
26	0x3def0639	0.11671109
27	0x3e6df907	0.23239528
28	0x3da46b71	0.08028305
29	0xbe14cb19	-0.145306
30	0xbd739be9	-0.05947486
31	0x3d6ac950	0.057320893
32	0xbd585ec5	-0.052824754
33	0x3b8a31b4	0.004217351
34	0xbe03d941	-0.12875845
35	0xbd101e98	-0.035185426
36	0x3dbdc6f6	0.092664644
37	0xbd5b813e	-0.05359005
38	0xbe09821e	-0.13428542
39	0x3cff74a5	0.03118355
40	0xbdbaf403	-0.09128573
41	0xbdfbb45b	-0.122902595
42	0xbcf36668	-0.029711917
43	0x3d81c69e	0.06336711
44	0x3c945625	0.018107483
45	0x3d9819a0	0.074267626
46	0xbd21d59c	-0.039510354
47	0x3d803fea	0.06262191
48	0x3db1e68c	0.086865515
49	0x3e119073	0.14215259
50	0xbda15f8c	-0.07879552
51	0x3da6fa7f	0.08153247
52	0xbd00ec6c	-0.03147547
53	0xbded09d0	-0.11574137
54	0xbdd51cf6	-0.104059145
55	0xbddbc866	-0.10731582
56	0xbc981024	-0.018562384
57	0xbbdf3d04	-0.0068126936
58	0xbdbddc7c	-0.0927057
59	0x3e2421c0	0.160285
60	0xbd068601	-0.03284264
61	0x3da170eb	0.078828655
62	0x3da3309c	0.07968256
63	0x3d68fd02	0.056881912
64	0x3d948082	0.072510734
65	0xbd50cb4e	-0.050975136
66	0xbdc447d5	-0.095840134
67	0xbc8703c0	-0.01648128
68	0xbbd5bdf5	-0.006522889
69	0x3d976a02	0.07393266
70	0xbd63a8e1	-0.055580977
71	0xbd9f65aa	-0.07783063
72	0x3bd4435e	0.0064777574
73	0xbd80033d	-0.06250618
74	0xbe215201	-0.15753938
75	0xbdcb9dec	-0.099422306
76	0xbd190f95	-0.037368376
77	0x3ca1e4f1	0.019762488
78	0xbdad20ce	-0.084535226
79	0xbd6c3e30	-0.057676494
80	0x3deba236	0.11505549
81	0x3dfa04ba	0.12207933
82	0x3dd7b580	0.10532665
83	0x3d9d6125	0.076845445
84	0x3d98c0a0	0.07458615
85	0xbde000ad	-0.10937629
86	0xbdb7eb0e	-0.0898038
87	0x3d4b0609	0.049566302
88	0xbda976be	-0.082746014
89	0xbd4d8387	-0.050174262
90	0xbc919c3d	-0.017774696
91	0xbd8f1a50	-0.069874406
92	0x3d723b89	0.05913881
93	0x3d9cdea1	0.076596506
94	0xbe05e390	-0.1307509
95	0xbd3f8101	-0.046753887
96	0x3c80d256	0.015725296
97	0x3d0d4b3b	0.034495573
98	0x3d90d0b8	0.0707106
99	0xbdca102f	-0.09866368
100	0x3de75fd8	0.112975776
101	0x3a87bb4a	0.0010355499
102	0x3e2b2bd4	0.16715938
103	0xbc9f3633	-0.019435024
104	0xbd9daa0d	-0.0769845
105	0xbdcf1dec	-0.10113129
106	0xbe490408	-0.19630444
107	0xbd17819a	-0.036988832
108	0xbe179b2f	-0.14805292
109	0xbdae44b2	-0.08509196
110	0xbdc0dd5f	-0.09417223
111	0xbc2527f5	-0.010080327
112	0xbd8f2fe8	-0.06991559
113	0x3d2dc83d	0.04242729
114	0xbddbcf06	-0.10732846
115	0x3dceb2a2	0.10092665
116	0xbd08b011	-0.033371035
117	0x3ddf56af	0.109052055
118	0x3d00eb2a	0.03147427
119	0xbdef9b0a	-0.11699493
120	0x3da2e82e	0.07954441
121	0x3e1c9e6c	0.15294808
122	0x3cfc9f8b	0.030837795
123	0x3cac8750	0.021060616
124	0x3d0b2029	0.033966217
125	0xbb8ba4a8	-0.004261572
126	0xbd3f0388	-0.046634227
127	0x3dbc52ab	0.09195455

army_head.bias f4 [2]
0	0xbdd81fd8	-0.10552949
1	0xbcfe5dc7	-0.031050576
